…
  File "/scicore/soft/apps/Python/3.7.4-GCCcore-8.3.0/lib/python3.7/runpy.py", line 193, in _run_module_as_main
    "__main__", mod_spec)
  File "/scicore/soft/apps/Python/3.7.4-GCCcore-8.3.0/lib/python3.7/runpy.py", line 85, in _run_code
    exec(code, run_globals)
  File "/scicore/home/graber0001/schran0000/espnet/espnet2/bin/launch.py", line 385, in <module>
    main()
  File "/scicore/home/graber0001/schran0000/espnet/espnet2/bin/launch.py", line 378, in main
    f"###################\n" + "".join(lines[-1000:])
RuntimeError: 
################### The last 1000 lines of exp/asr_train_asr_conformer5_raw_de_bpe5000_sp/train.log ###################
          (w_1): Linear(in_features=512, out_features=2048, bias=True)
          (w_2): Linear(in_features=2048, out_features=512, bias=True)
          (dropout): Dropout(p=0.1, inplace=False)
          (activation): Swish()
        )
        (conv_module): ConvolutionModule(
          (pointwise_conv1): Conv1d(512, 1024, kernel_size=(1,), stride=(1,))
          (depthwise_conv): Conv1d(512, 512, kernel_size=(31,), stride=(1,), padding=(15,), groups=512)
          (norm): BatchNorm1d(512, eps=1e-05, momentum=0.1, affine=True, track_running_stats=True)
          (pointwise_conv2): Conv1d(512, 512, kernel_size=(1,), stride=(1,))
          (activation): Swish()
        )
        (norm_ff): LayerNorm((512,), eps=1e-12, elementwise_affine=True)
        (norm_mha): LayerNorm((512,), eps=1e-12, elementwise_affine=True)
        (norm_ff_macaron): LayerNorm((512,), eps=1e-12, elementwise_affine=True)
        (norm_conv): LayerNorm((512,), eps=1e-12, elementwise_affine=True)
        (norm_final): LayerNorm((512,), eps=1e-12, elementwise_affine=True)
        (dropout): Dropout(p=0.1, inplace=False)
      )
      (3): EncoderLayer(
        (self_attn): LegacyRelPositionMultiHeadedAttention(
          (linear_q): Linear(in_features=512, out_features=512, bias=True)
          (linear_k): Linear(in_features=512, out_features=512, bias=True)
          (linear_v): Linear(in_features=512, out_features=512, bias=True)
          (linear_out): Linear(in_features=512, out_features=512, bias=True)
          (dropout): Dropout(p=0.1, inplace=False)
          (linear_pos): Linear(in_features=512, out_features=512, bias=False)
        )
        (feed_forward): PositionwiseFeedForward(
          (w_1): Linear(in_features=512, out_features=2048, bias=True)
          (w_2): Linear(in_features=2048, out_features=512, bias=True)
          (dropout): Dropout(p=0.1, inplace=False)
          (activation): Swish()
        )
        (feed_forward_macaron): PositionwiseFeedForward(
          (w_1): Linear(in_features=512, out_features=2048, bias=True)
          (w_2): Linear(in_features=2048, out_features=512, bias=True)
          (dropout): Dropout(p=0.1, inplace=False)
          (activation): Swish()
        )
        (conv_module): ConvolutionModule(
          (pointwise_conv1): Conv1d(512, 1024, kernel_size=(1,), stride=(1,))
          (depthwise_conv): Conv1d(512, 512, kernel_size=(31,), stride=(1,), padding=(15,), groups=512)
          (norm): BatchNorm1d(512, eps=1e-05, momentum=0.1, affine=True, track_running_stats=True)
          (pointwise_conv2): Conv1d(512, 512, kernel_size=(1,), stride=(1,))
          (activation): Swish()
        )
        (norm_ff): LayerNorm((512,), eps=1e-12, elementwise_affine=True)
        (norm_mha): LayerNorm((512,), eps=1e-12, elementwise_affine=True)
        (norm_ff_macaron): LayerNorm((512,), eps=1e-12, elementwise_affine=True)
        (norm_conv): LayerNorm((512,), eps=1e-12, elementwise_affine=True)
        (norm_final): LayerNorm((512,), eps=1e-12, elementwise_affine=True)
        (dropout): Dropout(p=0.1, inplace=False)
      )
      (4): EncoderLayer(
        (self_attn): LegacyRelPositionMultiHeadedAttention(
          (linear_q): Linear(in_features=512, out_features=512, bias=True)
          (linear_k): Linear(in_features=512, out_features=512, bias=True)
          (linear_v): Linear(in_features=512, out_features=512, bias=True)
          (linear_out): Linear(in_features=512, out_features=512, bias=True)
          (dropout): Dropout(p=0.1, inplace=False)
          (linear_pos): Linear(in_features=512, out_features=512, bias=False)
        )
        (feed_forward): PositionwiseFeedForward(
          (w_1): Linear(in_features=512, out_features=2048, bias=True)
          (w_2): Linear(in_features=2048, out_features=512, bias=True)
          (dropout): Dropout(p=0.1, inplace=False)
          (activation): Swish()
        )
        (feed_forward_macaron): PositionwiseFeedForward(
          (w_1): Linear(in_features=512, out_features=2048, bias=True)
          (w_2): Linear(in_features=2048, out_features=512, bias=True)
          (dropout): Dropout(p=0.1, inplace=False)
          (activation): Swish()
        )
        (conv_module): ConvolutionModule(
          (pointwise_conv1): Conv1d(512, 1024, kernel_size=(1,), stride=(1,))
          (depthwise_conv): Conv1d(512, 512, kernel_size=(31,), stride=(1,), padding=(15,), groups=512)
          (norm): BatchNorm1d(512, eps=1e-05, momentum=0.1, affine=True, track_running_stats=True)
          (pointwise_conv2): Conv1d(512, 512, kernel_size=(1,), stride=(1,))
          (activation): Swish()
        )
        (norm_ff): LayerNorm((512,), eps=1e-12, elementwise_affine=True)
        (norm_mha): LayerNorm((512,), eps=1e-12, elementwise_affine=True)
        (norm_ff_macaron): LayerNorm((512,), eps=1e-12, elementwise_affine=True)
        (norm_conv): LayerNorm((512,), eps=1e-12, elementwise_affine=True)
        (norm_final): LayerNorm((512,), eps=1e-12, elementwise_affine=True)
        (dropout): Dropout(p=0.1, inplace=False)
      )
      (5): EncoderLayer(
        (self_attn): LegacyRelPositionMultiHeadedAttention(
          (linear_q): Linear(in_features=512, out_features=512, bias=True)
          (linear_k): Linear(in_features=512, out_features=512, bias=True)
          (linear_v): Linear(in_features=512, out_features=512, bias=True)
          (linear_out): Linear(in_features=512, out_features=512, bias=True)
          (dropout): Dropout(p=0.1, inplace=False)
          (linear_pos): Linear(in_features=512, out_features=512, bias=False)
        )
        (feed_forward): PositionwiseFeedForward(
          (w_1): Linear(in_features=512, out_features=2048, bias=True)
          (w_2): Linear(in_features=2048, out_features=512, bias=True)
          (dropout): Dropout(p=0.1, inplace=False)
          (activation): Swish()
        )
        (feed_forward_macaron): PositionwiseFeedForward(
          (w_1): Linear(in_features=512, out_features=2048, bias=True)
          (w_2): Linear(in_features=2048, out_features=512, bias=True)
          (dropout): Dropout(p=0.1, inplace=False)
          (activation): Swish()
        )
        (conv_module): ConvolutionModule(
          (pointwise_conv1): Conv1d(512, 1024, kernel_size=(1,), stride=(1,))
          (depthwise_conv): Conv1d(512, 512, kernel_size=(31,), stride=(1,), padding=(15,), groups=512)
          (norm): BatchNorm1d(512, eps=1e-05, momentum=0.1, affine=True, track_running_stats=True)
          (pointwise_conv2): Conv1d(512, 512, kernel_size=(1,), stride=(1,))
          (activation): Swish()
        )
        (norm_ff): LayerNorm((512,), eps=1e-12, elementwise_affine=True)
        (norm_mha): LayerNorm((512,), eps=1e-12, elementwise_affine=True)
        (norm_ff_macaron): LayerNorm((512,), eps=1e-12, elementwise_affine=True)
        (norm_conv): LayerNorm((512,), eps=1e-12, elementwise_affine=True)
        (norm_final): LayerNorm((512,), eps=1e-12, elementwise_affine=True)
        (dropout): Dropout(p=0.1, inplace=False)
      )
      (6): EncoderLayer(
        (self_attn): LegacyRelPositionMultiHeadedAttention(
          (linear_q): Linear(in_features=512, out_features=512, bias=True)
          (linear_k): Linear(in_features=512, out_features=512, bias=True)
          (linear_v): Linear(in_features=512, out_features=512, bias=True)
          (linear_out): Linear(in_features=512, out_features=512, bias=True)
          (dropout): Dropout(p=0.1, inplace=False)
          (linear_pos): Linear(in_features=512, out_features=512, bias=False)
        )
        (feed_forward): PositionwiseFeedForward(
          (w_1): Linear(in_features=512, out_features=2048, bias=True)
          (w_2): Linear(in_features=2048, out_features=512, bias=True)
          (dropout): Dropout(p=0.1, inplace=False)
          (activation): Swish()
        )
        (feed_forward_macaron): PositionwiseFeedForward(
          (w_1): Linear(in_features=512, out_features=2048, bias=True)
          (w_2): Linear(in_features=2048, out_features=512, bias=True)
          (dropout): Dropout(p=0.1, inplace=False)
          (activation): Swish()
        )
        (conv_module): ConvolutionModule(
          (pointwise_conv1): Conv1d(512, 1024, kernel_size=(1,), stride=(1,))
          (depthwise_conv): Conv1d(512, 512, kernel_size=(31,), stride=(1,), padding=(15,), groups=512)
          (norm): BatchNorm1d(512, eps=1e-05, momentum=0.1, affine=True, track_running_stats=True)
          (pointwise_conv2): Conv1d(512, 512, kernel_size=(1,), stride=(1,))
          (activation): Swish()
        )
        (norm_ff): LayerNorm((512,), eps=1e-12, elementwise_affine=True)
        (norm_mha): LayerNorm((512,), eps=1e-12, elementwise_affine=True)
        (norm_ff_macaron): LayerNorm((512,), eps=1e-12, elementwise_affine=True)
        (norm_conv): LayerNorm((512,), eps=1e-12, elementwise_affine=True)
        (norm_final): LayerNorm((512,), eps=1e-12, elementwise_affine=True)
        (dropout): Dropout(p=0.1, inplace=False)
      )
      (7): EncoderLayer(
        (self_attn): LegacyRelPositionMultiHeadedAttention(
          (linear_q): Linear(in_features=512, out_features=512, bias=True)
          (linear_k): Linear(in_features=512, out_features=512, bias=True)
          (linear_v): Linear(in_features=512, out_features=512, bias=True)
          (linear_out): Linear(in_features=512, out_features=512, bias=True)
          (dropout): Dropout(p=0.1, inplace=False)
          (linear_pos): Linear(in_features=512, out_features=512, bias=False)
        )
        (feed_forward): PositionwiseFeedForward(
          (w_1): Linear(in_features=512, out_features=2048, bias=True)
          (w_2): Linear(in_features=2048, out_features=512, bias=True)
          (dropout): Dropout(p=0.1, inplace=False)
          (activation): Swish()
        )
        (feed_forward_macaron): PositionwiseFeedForward(
          (w_1): Linear(in_features=512, out_features=2048, bias=True)
          (w_2): Linear(in_features=2048, out_features=512, bias=True)
          (dropout): Dropout(p=0.1, inplace=False)
          (activation): Swish()
        )
        (conv_module): ConvolutionModule(
          (pointwise_conv1): Conv1d(512, 1024, kernel_size=(1,), stride=(1,))
          (depthwise_conv): Conv1d(512, 512, kernel_size=(31,), stride=(1,), padding=(15,), groups=512)
          (norm): BatchNorm1d(512, eps=1e-05, momentum=0.1, affine=True, track_running_stats=True)
          (pointwise_conv2): Conv1d(512, 512, kernel_size=(1,), stride=(1,))
          (activation): Swish()
        )
        (norm_ff): LayerNorm((512,), eps=1e-12, elementwise_affine=True)
        (norm_mha): LayerNorm((512,), eps=1e-12, elementwise_affine=True)
        (norm_ff_macaron): LayerNorm((512,), eps=1e-12, elementwise_affine=True)
        (norm_conv): LayerNorm((512,), eps=1e-12, elementwise_affine=True)
        (norm_final): LayerNorm((512,), eps=1e-12, elementwise_affine=True)
        (dropout): Dropout(p=0.1, inplace=False)
      )
      (8): EncoderLayer(
        (self_attn): LegacyRelPositionMultiHeadedAttention(
          (linear_q): Linear(in_features=512, out_features=512, bias=True)
          (linear_k): Linear(in_features=512, out_features=512, bias=True)
          (linear_v): Linear(in_features=512, out_features=512, bias=True)
          (linear_out): Linear(in_features=512, out_features=512, bias=True)
          (dropout): Dropout(p=0.1, inplace=False)
          (linear_pos): Linear(in_features=512, out_features=512, bias=False)
        )
        (feed_forward): PositionwiseFeedForward(
          (w_1): Linear(in_features=512, out_features=2048, bias=True)
          (w_2): Linear(in_features=2048, out_features=512, bias=True)
          (dropout): Dropout(p=0.1, inplace=False)
          (activation): Swish()
        )
        (feed_forward_macaron): PositionwiseFeedForward(
          (w_1): Linear(in_features=512, out_features=2048, bias=True)
          (w_2): Linear(in_features=2048, out_features=512, bias=True)
          (dropout): Dropout(p=0.1, inplace=False)
          (activation): Swish()
        )
        (conv_module): ConvolutionModule(
          (pointwise_conv1): Conv1d(512, 1024, kernel_size=(1,), stride=(1,))
          (depthwise_conv): Conv1d(512, 512, kernel_size=(31,), stride=(1,), padding=(15,), groups=512)
          (norm): BatchNorm1d(512, eps=1e-05, momentum=0.1, affine=True, track_running_stats=True)
          (pointwise_conv2): Conv1d(512, 512, kernel_size=(1,), stride=(1,))
          (activation): Swish()
        )
        (norm_ff): LayerNorm((512,), eps=1e-12, elementwise_affine=True)
        (norm_mha): LayerNorm((512,), eps=1e-12, elementwise_affine=True)
        (norm_ff_macaron): LayerNorm((512,), eps=1e-12, elementwise_affine=True)
        (norm_conv): LayerNorm((512,), eps=1e-12, elementwise_affine=True)
        (norm_final): LayerNorm((512,), eps=1e-12, elementwise_affine=True)
        (dropout): Dropout(p=0.1, inplace=False)
      )
      (9): EncoderLayer(
        (self_attn): LegacyRelPositionMultiHeadedAttention(
          (linear_q): Linear(in_features=512, out_features=512, bias=True)
          (linear_k): Linear(in_features=512, out_features=512, bias=True)
          (linear_v): Linear(in_features=512, out_features=512, bias=True)
          (linear_out): Linear(in_features=512, out_features=512, bias=True)
          (dropout): Dropout(p=0.1, inplace=False)
          (linear_pos): Linear(in_features=512, out_features=512, bias=False)
        )
        (feed_forward): PositionwiseFeedForward(
          (w_1): Linear(in_features=512, out_features=2048, bias=True)
          (w_2): Linear(in_features=2048, out_features=512, bias=True)
          (dropout): Dropout(p=0.1, inplace=False)
          (activation): Swish()
        )
        (feed_forward_macaron): PositionwiseFeedForward(
          (w_1): Linear(in_features=512, out_features=2048, bias=True)
          (w_2): Linear(in_features=2048, out_features=512, bias=True)
          (dropout): Dropout(p=0.1, inplace=False)
          (activation): Swish()
        )
        (conv_module): ConvolutionModule(
          (pointwise_conv1): Conv1d(512, 1024, kernel_size=(1,), stride=(1,))
          (depthwise_conv): Conv1d(512, 512, kernel_size=(31,), stride=(1,), padding=(15,), groups=512)
          (norm): BatchNorm1d(512, eps=1e-05, momentum=0.1, affine=True, track_running_stats=True)
          (pointwise_conv2): Conv1d(512, 512, kernel_size=(1,), stride=(1,))
          (activation): Swish()
        )
        (norm_ff): LayerNorm((512,), eps=1e-12, elementwise_affine=True)
        (norm_mha): LayerNorm((512,), eps=1e-12, elementwise_affine=True)
        (norm_ff_macaron): LayerNorm((512,), eps=1e-12, elementwise_affine=True)
        (norm_conv): LayerNorm((512,), eps=1e-12, elementwise_affine=True)
        (norm_final): LayerNorm((512,), eps=1e-12, elementwise_affine=True)
        (dropout): Dropout(p=0.1, inplace=False)
      )
      (10): EncoderLayer(
        (self_attn): LegacyRelPositionMultiHeadedAttention(
          (linear_q): Linear(in_features=512, out_features=512, bias=True)
          (linear_k): Linear(in_features=512, out_features=512, bias=True)
          (linear_v): Linear(in_features=512, out_features=512, bias=True)
          (linear_out): Linear(in_features=512, out_features=512, bias=True)
          (dropout): Dropout(p=0.1, inplace=False)
          (linear_pos): Linear(in_features=512, out_features=512, bias=False)
        )
        (feed_forward): PositionwiseFeedForward(
          (w_1): Linear(in_features=512, out_features=2048, bias=True)
          (w_2): Linear(in_features=2048, out_features=512, bias=True)
          (dropout): Dropout(p=0.1, inplace=False)
          (activation): Swish()
        )
        (feed_forward_macaron): PositionwiseFeedForward(
          (w_1): Linear(in_features=512, out_features=2048, bias=True)
          (w_2): Linear(in_features=2048, out_features=512, bias=True)
          (dropout): Dropout(p=0.1, inplace=False)
          (activation): Swish()
        )
        (conv_module): ConvolutionModule(
          (pointwise_conv1): Conv1d(512, 1024, kernel_size=(1,), stride=(1,))
          (depthwise_conv): Conv1d(512, 512, kernel_size=(31,), stride=(1,), padding=(15,), groups=512)
          (norm): BatchNorm1d(512, eps=1e-05, momentum=0.1, affine=True, track_running_stats=True)
          (pointwise_conv2): Conv1d(512, 512, kernel_size=(1,), stride=(1,))
          (activation): Swish()
        )
        (norm_ff): LayerNorm((512,), eps=1e-12, elementwise_affine=True)
        (norm_mha): LayerNorm((512,), eps=1e-12, elementwise_affine=True)
        (norm_ff_macaron): LayerNorm((512,), eps=1e-12, elementwise_affine=True)
        (norm_conv): LayerNorm((512,), eps=1e-12, elementwise_affine=True)
        (norm_final): LayerNorm((512,), eps=1e-12, elementwise_affine=True)
        (dropout): Dropout(p=0.1, inplace=False)
      )
      (11): EncoderLayer(
        (self_attn): LegacyRelPositionMultiHeadedAttention(
          (linear_q): Linear(in_features=512, out_features=512, bias=True)
          (linear_k): Linear(in_features=512, out_features=512, bias=True)
          (linear_v): Linear(in_features=512, out_features=512, bias=True)
          (linear_out): Linear(in_features=512, out_features=512, bias=True)
          (dropout): Dropout(p=0.1, inplace=False)
          (linear_pos): Linear(in_features=512, out_features=512, bias=False)
        )
        (feed_forward): PositionwiseFeedForward(
          (w_1): Linear(in_features=512, out_features=2048, bias=True)
          (w_2): Linear(in_features=2048, out_features=512, bias=True)
          (dropout): Dropout(p=0.1, inplace=False)
          (activation): Swish()
        )
        (feed_forward_macaron): PositionwiseFeedForward(
          (w_1): Linear(in_features=512, out_features=2048, bias=True)
          (w_2): Linear(in_features=2048, out_features=512, bias=True)
          (dropout): Dropout(p=0.1, inplace=False)
          (activation): Swish()
        )
        (conv_module): ConvolutionModule(
          (pointwise_conv1): Conv1d(512, 1024, kernel_size=(1,), stride=(1,))
          (depthwise_conv): Conv1d(512, 512, kernel_size=(31,), stride=(1,), padding=(15,), groups=512)
          (norm): BatchNorm1d(512, eps=1e-05, momentum=0.1, affine=True, track_running_stats=True)
          (pointwise_conv2): Conv1d(512, 512, kernel_size=(1,), stride=(1,))
          (activation): Swish()
        )
        (norm_ff): LayerNorm((512,), eps=1e-12, elementwise_affine=True)
        (norm_mha): LayerNorm((512,), eps=1e-12, elementwise_affine=True)
        (norm_ff_macaron): LayerNorm((512,), eps=1e-12, elementwise_affine=True)
        (norm_conv): LayerNorm((512,), eps=1e-12, elementwise_affine=True)
        (norm_final): LayerNorm((512,), eps=1e-12, elementwise_affine=True)
        (dropout): Dropout(p=0.1, inplace=False)
      )
    )
    (after_norm): LayerNorm((512,), eps=1e-12, elementwise_affine=True)
  )
  (decoder): TransformerDecoder(
    (embed): Sequential(
      (0): Embedding(5000, 512)
      (1): PositionalEncoding(
        (dropout): Dropout(p=0.1, inplace=False)
      )
    )
    (after_norm): LayerNorm((512,), eps=1e-12, elementwise_affine=True)
    (output_layer): Linear(in_features=512, out_features=5000, bias=True)
    (decoders): MultiSequential(
      (0): DecoderLayer(
        (self_attn): MultiHeadedAttention(
          (linear_q): Linear(in_features=512, out_features=512, bias=True)
          (linear_k): Linear(in_features=512, out_features=512, bias=True)
          (linear_v): Linear(in_features=512, out_features=512, bias=True)
          (linear_out): Linear(in_features=512, out_features=512, bias=True)
          (dropout): Dropout(p=0.1, inplace=False)
        )
        (src_attn): MultiHeadedAttention(
          (linear_q): Linear(in_features=512, out_features=512, bias=True)
          (linear_k): Linear(in_features=512, out_features=512, bias=True)
          (linear_v): Linear(in_features=512, out_features=512, bias=True)
          (linear_out): Linear(in_features=512, out_features=512, bias=True)
          (dropout): Dropout(p=0.1, inplace=False)
        )
        (feed_forward): PositionwiseFeedForward(
          (w_1): Linear(in_features=512, out_features=2048, bias=True)
          (w_2): Linear(in_features=2048, out_features=512, bias=True)
          (dropout): Dropout(p=0.1, inplace=False)
          (activation): ReLU()
        )
        (norm1): LayerNorm((512,), eps=1e-12, elementwise_affine=True)
        (norm2): LayerNorm((512,), eps=1e-12, elementwise_affine=True)
        (norm3): LayerNorm((512,), eps=1e-12, elementwise_affine=True)
        (dropout): Dropout(p=0.1, inplace=False)
      )
      (1): DecoderLayer(
        (self_attn): MultiHeadedAttention(
          (linear_q): Linear(in_features=512, out_features=512, bias=True)
          (linear_k): Linear(in_features=512, out_features=512, bias=True)
          (linear_v): Linear(in_features=512, out_features=512, bias=True)
          (linear_out): Linear(in_features=512, out_features=512, bias=True)
          (dropout): Dropout(p=0.1, inplace=False)
        )
        (src_attn): MultiHeadedAttention(
          (linear_q): Linear(in_features=512, out_features=512, bias=True)
          (linear_k): Linear(in_features=512, out_features=512, bias=True)
          (linear_v): Linear(in_features=512, out_features=512, bias=True)
          (linear_out): Linear(in_features=512, out_features=512, bias=True)
          (dropout): Dropout(p=0.1, inplace=False)
        )
        (feed_forward): PositionwiseFeedForward(
          (w_1): Linear(in_features=512, out_features=2048, bias=True)
          (w_2): Linear(in_features=2048, out_features=512, bias=True)
          (dropout): Dropout(p=0.1, inplace=False)
          (activation): ReLU()
        )
        (norm1): LayerNorm((512,), eps=1e-12, elementwise_affine=True)
        (norm2): LayerNorm((512,), eps=1e-12, elementwise_affine=True)
        (norm3): LayerNorm((512,), eps=1e-12, elementwise_affine=True)
        (dropout): Dropout(p=0.1, inplace=False)
      )
      (2): DecoderLayer(
        (self_attn): MultiHeadedAttention(
          (linear_q): Linear(in_features=512, out_features=512, bias=True)
          (linear_k): Linear(in_features=512, out_features=512, bias=True)
          (linear_v): Linear(in_features=512, out_features=512, bias=True)
          (linear_out): Linear(in_features=512, out_features=512, bias=True)
          (dropout): Dropout(p=0.1, inplace=False)
        )
        (src_attn): MultiHeadedAttention(
          (linear_q): Linear(in_features=512, out_features=512, bias=True)
          (linear_k): Linear(in_features=512, out_features=512, bias=True)
          (linear_v): Linear(in_features=512, out_features=512, bias=True)
          (linear_out): Linear(in_features=512, out_features=512, bias=True)
          (dropout): Dropout(p=0.1, inplace=False)
        )
        (feed_forward): PositionwiseFeedForward(
          (w_1): Linear(in_features=512, out_features=2048, bias=True)
          (w_2): Linear(in_features=2048, out_features=512, bias=True)
          (dropout): Dropout(p=0.1, inplace=False)
          (activation): ReLU()
        )
        (norm1): LayerNorm((512,), eps=1e-12, elementwise_affine=True)
        (norm2): LayerNorm((512,), eps=1e-12, elementwise_affine=True)
        (norm3): LayerNorm((512,), eps=1e-12, elementwise_affine=True)
        (dropout): Dropout(p=0.1, inplace=False)
      )
      (3): DecoderLayer(
        (self_attn): MultiHeadedAttention(
          (linear_q): Linear(in_features=512, out_features=512, bias=True)
          (linear_k): Linear(in_features=512, out_features=512, bias=True)
          (linear_v): Linear(in_features=512, out_features=512, bias=True)
          (linear_out): Linear(in_features=512, out_features=512, bias=True)
          (dropout): Dropout(p=0.1, inplace=False)
        )
        (src_attn): MultiHeadedAttention(
          (linear_q): Linear(in_features=512, out_features=512, bias=True)
          (linear_k): Linear(in_features=512, out_features=512, bias=True)
          (linear_v): Linear(in_features=512, out_features=512, bias=True)
          (linear_out): Linear(in_features=512, out_features=512, bias=True)
          (dropout): Dropout(p=0.1, inplace=False)
        )
        (feed_forward): PositionwiseFeedForward(
          (w_1): Linear(in_features=512, out_features=2048, bias=True)
          (w_2): Linear(in_features=2048, out_features=512, bias=True)
          (dropout): Dropout(p=0.1, inplace=False)
          (activation): ReLU()
        )
        (norm1): LayerNorm((512,), eps=1e-12, elementwise_affine=True)
        (norm2): LayerNorm((512,), eps=1e-12, elementwise_affine=True)
        (norm3): LayerNorm((512,), eps=1e-12, elementwise_affine=True)
        (dropout): Dropout(p=0.1, inplace=False)
      )
      (4): DecoderLayer(
        (self_attn): MultiHeadedAttention(
          (linear_q): Linear(in_features=512, out_features=512, bias=True)
          (linear_k): Linear(in_features=512, out_features=512, bias=True)
          (linear_v): Linear(in_features=512, out_features=512, bias=True)
          (linear_out): Linear(in_features=512, out_features=512, bias=True)
          (dropout): Dropout(p=0.1, inplace=False)
        )
        (src_attn): MultiHeadedAttention(
          (linear_q): Linear(in_features=512, out_features=512, bias=True)
          (linear_k): Linear(in_features=512, out_features=512, bias=True)
          (linear_v): Linear(in_features=512, out_features=512, bias=True)
          (linear_out): Linear(in_features=512, out_features=512, bias=True)
          (dropout): Dropout(p=0.1, inplace=False)
        )
        (feed_forward): PositionwiseFeedForward(
          (w_1): Linear(in_features=512, out_features=2048, bias=True)
          (w_2): Linear(in_features=2048, out_features=512, bias=True)
          (dropout): Dropout(p=0.1, inplace=False)
          (activation): ReLU()
        )
        (norm1): LayerNorm((512,), eps=1e-12, elementwise_affine=True)
        (norm2): LayerNorm((512,), eps=1e-12, elementwise_affine=True)
        (norm3): LayerNorm((512,), eps=1e-12, elementwise_affine=True)
        (dropout): Dropout(p=0.1, inplace=False)
      )
      (5): DecoderLayer(
        (self_attn): MultiHeadedAttention(
          (linear_q): Linear(in_features=512, out_features=512, bias=True)
          (linear_k): Linear(in_features=512, out_features=512, bias=True)
          (linear_v): Linear(in_features=512, out_features=512, bias=True)
          (linear_out): Linear(in_features=512, out_features=512, bias=True)
          (dropout): Dropout(p=0.1, inplace=False)
        )
        (src_attn): MultiHeadedAttention(
          (linear_q): Linear(in_features=512, out_features=512, bias=True)
          (linear_k): Linear(in_features=512, out_features=512, bias=True)
          (linear_v): Linear(in_features=512, out_features=512, bias=True)
          (linear_out): Linear(in_features=512, out_features=512, bias=True)
          (dropout): Dropout(p=0.1, inplace=False)
        )
        (feed_forward): PositionwiseFeedForward(
          (w_1): Linear(in_features=512, out_features=2048, bias=True)
          (w_2): Linear(in_features=2048, out_features=512, bias=True)
          (dropout): Dropout(p=0.1, inplace=False)
          (activation): ReLU()
        )
        (norm1): LayerNorm((512,), eps=1e-12, elementwise_affine=True)
        (norm2): LayerNorm((512,), eps=1e-12, elementwise_affine=True)
        (norm3): LayerNorm((512,), eps=1e-12, elementwise_affine=True)
        (dropout): Dropout(p=0.1, inplace=False)
      )
    )
  )
  (criterion_att): LabelSmoothingLoss(
    (criterion): KLDivLoss()
  )
  (ctc): CTC(
    (ctc_lo): Linear(in_features=512, out_features=5000, bias=True)
    (ctc_loss): CTCLoss()
  )
)

Model summary:
    Class Name: ESPnetASRModel
    Total Number of model parameters: 116.15 M
    Number of trainable parameters: 116.15 M (100.0%)
    Size: 464.59 MB
    Type: torch.float32
[sgi61:0/4] 2022-03-09 14:28:45,658 (abs_task:1161) INFO: Optimizer:
Adam (
Parameter Group 0
    amsgrad: False
    betas: (0.9, 0.999)
…
